models/tcn_pruned.pt (torch, 5736 bytes, 3 tensors)

conv1.weight f4 [64, 6, 2]
0	0xbd380045	-0.044922132
1	0x3e1d1065	0.15338285
2	0x3e2b2c54	0.16716129
3	0x3e276a15	0.16349061
4	0xbe5f88d9	-0.21829547
5	0x3e3d21ab	0.18469875
6	0x3e693479	0.22773923
7	0x3e07bc29	0.13255371
8	0xbe6a2a86	-0.22867784
9	0xbe056d8f	-0.13030075
10	0x3dc8b72e	0.09800564
11	0x3b4a1cfa	0.0030840025
12	0xbe3d48aa	-0.1848475
13	0x3ccf6431	0.02531633
14	0x3df3f911	0.1191274
15	0xbe86d9c5	-0.2633802
16	0xbc0270a4	-0.007961426
17	0xbdf40703	-0.119154
18	0xbdc1bdf1	-0.094600566
19	0x3d48f5a0	0.04906237
20	0xbe81c5e0	-0.2534628
21	0xbe505136	-0.2034348
22	0xbe067d1e	-0.13133666
23	0xbd4c1361	-0.04982317
24	0xbe476fb2	-0.19476202
25	0xbdfbee8d	-0.12301359
26	0x3df750bf	0.12075948
27	0x3e6f360e	0.23360464
28	0x3c07f803	0.008298877
29	0xbe094bfe	-0.13407895
30	0xbe8e5864	-0.27801812
31	0xbe83aa0c	-0.25715673
32	0xbd261fae	-0.040557556
33	0xbdc39b52	-0.095511094
34	0x3e2376b0	0.15963244
35	0xbbaa7671	-0.0052021076
36	0xbaa3b4b3	-0.0012489766
37	0x3e36b368	0.17841876
38	0x3c8757f2	0.016521428
39	0x3e2ed4d1	0.1707337
40	0xbe3a2249	-0.18177141
41	0xbe5aeba9	-0.2137896
42	0xbe93776c	-0.2880205
43	0x3dba9880	0.09111118
44	0x3cdf6d4c	0.027273796
45	0xbe0953a9	-0.1341082
46	0xbc5aef49	-0.013362714
47	0xbe8460ed	-0.25855199
48	0xbe3c6864	-0.18399197
49	0xbe867f2c	-0.262689
50	0xbe04fcab	-0.1298701
51	0x3db422bc	0.087956876
52	0x3e35d3c4	0.17756563
53	0xbe88b418	-0.266999
54	0x3d9b6747	0.07588058
55	0x3e6701ae	0.22559234
56	0xbd82ecd8	-0.063928306
57	0x3c62ef70	0.013851032
58	0x3d1243f1	0.035709325
59	0xbdaf9b09	-0.085744925
60	0xbe90afa6	-0.2825901
61	0x3db294c2	0.087197796
62	0x3d619a0e	0.05507856
63	0x3d17a68c	0.037024066
64	0xbe3ca001	-0.18420412
65	0xbe92a05a	-0.28637964
66	0xbdc78788	-0.097426474
67	0x3e0c0a1b	0.1367573
68	0xbe0e7c11	-0.13914515
69	0xbe795dcc	-0.24352187
70	0xbe415c92	-0.18882969
71	0xbdb8bee0	-0.090207815
72	0xbe268949	-0.16263308
73	0x3dd0c9d8	0.10194749
74	0xbdf240bf	-0.118287556
75	0xbe0cd4eb	-0.13753097
76	0x3cf14bb7	0.029455049
77	0x382ea601	4.1639436e-05
78	0x3e935b7f	0.28780743
79	0xbe3d0364	-0.18458325
80	0xbe400f77	-0.187559
81	0xbe83729e	-0.25673383
82	0x3d58012a	0.052735485
83	0x3e88610f	0.2663655
84	0x3e3c9141	0.18414785
85	0xbe515277	-0.20441614
86	0x3eb37d1d	0.3505639
87	0x3e0f5d89	0.14000525
88	0x3e5c3a4c	0.21506613
89	0xbde51337	-0.111853056
90	0xbbb14479	-0.005409774
91	0xbd28b711	-0.04119021
92	0xbd66e274	-0.056368306
93	0xbdecd461	-0.115639456
94	0xbea208e7	-0.31647417
95	0x3e1fb951	0.15598036
96	0xbbb50a2d	-0.0055248947
97	0xbd7204a6	-0.059086464
98	0xbe2b6df5	-0.16741164
99	0x3e56dd6a	0.209829
100	0xbe1e8f25	-0.15484293
101	0x3d87c1cc	0.06628761
102	0x3c195a0c	0.009359848
103	0x3e663b55	0.22483571
104	0x3d64707a	0.05577133
105	0x3e1ebf83	0.15502743
106	0xbdaa8f42	-0.083281055
107	0x3e35204a	0.17688099
108	0xbda801ce	-0.08203469
109	0x3e0417b8	0.12899673
110	0x3eb530ae	0.35388702
111	0xbd74874f	-0.059699353
112	0xbda1daf3	-0.079030894
113	0xbb80b766	-0.003928113
114	0x3eb4808d	0.35254326
115	0xbe45fa63	-0.19333796
116	0x3dd6707f	0.10470676
117	0xbe4e82c1	-0.20167066
118	0x3e80c1e9	0.25147942
119	0x3dc5a64f	0.096508615
120	0xbca1ac35	-0.019735435
121	0xbcf0e88e	-0.029407766
122	0x3dba16ef	0.090864055
123	0xbdf022c7	-0.11725383
124	0xbe74ff96	-0.23925623
125	0xbda1166f	-0.07865607
126	0xbe969c70	-0.29416227
127	0xbcfe5d19	-0.031050252
128	0x3c3a6f4e	0.011379076
129	0x3dd8dc04	0.1058884
130	0x3dbeb2b8	0.09311432
131	0x3c82c931	0.015965076
132	0xbd335c98	-0.043789476
133	0xbe3f1240	-0.18659306
134	0x3dc882e0	0.097905874
135	0xbdd6169d	-0.10453532
136	0x3e8123b9	0.25222567
137	0xbd9ae376	-0.07562916
138	0xbd7e5c04	-0.06209947
139	0x3e462f4b	0.19353978
140	0x3bc3b675	0.0059726783
141	0x3e45954e	0.19295236
142	0xbe77cc8d	-0.24199124
143	0x3e86232b	0.26198706
144	0x3d19976f	0.037497934
145	0xbe20b256	-0.1569303
146	0xbe8c387f	-0.27386853
147	0xbb0be193	-0.002134417
148	0xbd5aaf1c	-0.053389654
149	0xbe252061	-0.16125633
150	0xbd042f3f	-0.03227162
151	0x3c0e13c4	0.008671705
152	0x3db33f67	0.087523274
153	0x3d3b4c53	0.045727085
154	0xbe90a767	-0.28252718
155	0x3e34e057	0.17663704
156	0x3e032ffa	0.1281127
157	0x3e926bd1	0.28597882
158	0xbca16fad	-0.019706571
159	0xbe0d1cca	-0.13780513
160	0xbe8be92d	-0.27326337
161	0x3e8285fa	0.2549284
162	0x3d9c79ab	0.07640394
163	0x3e86be77	0.26317188
164	0x3e1970f7	0.14984499
165	0xbd868a3f	-0.06569337
166	0xbe866cfb	-0.2625502
167	0x3e30db95	0.17271264
168	0x3e91d312	0.28481346
169	0xbe8e9dfc	-0.27854908
170	0xbe5dd219	-0.21662177
171	0xbe6604fe	-0.22462842
172	0xbe6566b3	-0.22402458
173	0xbc83514d	-0.016029978
174	0xbe2cd434	-0.16877824
175	0xbd114f13	-0.0354758
176	0x3e500f8f	0.20318435
177	0xbdedba42	-0.116077915
178	0x3d9f0c65	0.07766036
179	0x3e736939	0.23770608
180	0xbe43dacf	-0.19126438
181	0xbbd59c4f	-0.0065188776
182	0x3d88fbb2	0.06688632
183	0xbe83e812	-0.25762993
184	0xbe0d6b84	-0.13810545
185	0xbdaaf1e8	-0.08346921
186	0xbe8f9b7a	-0.28048307
187	0xbe420883	-0.1894856
188	0xbdadcff4	-0.084869295
189	0xbe1e3632	-0.15450361
190	0x3e18fd0b	0.14940278
191	0xbe21f71d	-0.15816922
192	0x3e7f4f6b	0.2493264
193	0x3e18f095	0.14935525
194	0xbe466e25	-0.19377954
195	0xbe91f928	-0.28510404
196	0x3ea083db	0.31350598
197	0xbe1bca92	-0.15213993
198	0x3e9e2183	0.30884942
199	0x3d4f979d	0.0506817
200	0xbd83d5e8	-0.06437284
201	0x3d57635e	0.052585
202	0xbd9bc5e0	-0.07606101
203	0xbe0cf5d6	-0.13765654
204	0x3d1e3b6f	0.0386309
205	0x3e938737	0.28814098
206	0xbe1d5509	-0.1536447
207	0xbe551af9	-0.2081107
208	0xbe50329d	-0.20331807
209	0xbe14449f	-0.14479302
210	0xbe7a667f	-0.24453162
211	0xbdd13f3e	-0.102171406
212	0xbe0de4c7	-0.13856803
213	0xbe6b7c25	-0.22996576
214	0xbe01a68f	-0.12661193
215	0x3c079ac6	0.008276647
216	0xbe9f3b0d	-0.3109974
217	0x3e3cdb79	0.18443097
218	0xbda0f39f	-0.07858967
219	0x3e4ac0ac	0.19800061
220	0x3e6f981f	0.23397873
221	0xbe64bf80	-0.22338676
222	0xbe96f468	-0.29483342
223	0x3dde031e	0.10840438
224	0x3d40d917	0.047082033
225	0x3e42daa3	0.19028716
226	0x3e33f4f2	0.17573908
227	0x3e4a200d	0.19738789
228	0x3d7b28b0	0.0613181
229	0xbe914320	-0.28371525
230	0x3d970e40	0.07375765
231	0x3dd49128	0.10379249
232	0x3d847c32	0.06469001
233	0xbe8543b8	-0.26028228
234	0xbd4f240b	-0.050571483
235	0x3d2b8660	0.041876197
236	0xbda60d02	-0.0810795
237	0xbe5e56c3	-0.21712784
238	0xbcdf30b0	-0.027244896
239	0xbd6abf86	-0.057311557
240	0xbe9b65f0	-0.3035121
241	0xbc7904b5	-0.015198876
242	0xbe8bd978	-0.27314353
243	0xbe33c72b	-0.17556445
244	0x3c6a8c6c	0.014315706
245	0x3dff8a0f	0.124775045
246	0xbe82bcbd	-0.2553462
247	0xbd365a32	-0.04451961
248	0x3cb020b7	0.021499975
249	0x3e442ea2	0.19158414
250	0x3dfce16b	0.123476826
251	0x3e80b431	0.25137475
252	0xbdd56fa7	-0.104216866
253	0x3e04d070	0.12970138
254	0x3e31239d	0.17298742
255	0x3e742823	0.23843436

conv1.bias f4 [64]
0	0xbe5b1cb3	-0.21397667
1	0x3d963f05	0.07336239
2	0x3d92b544	0.0716348
3	0xbe4717c7	-0.19442664
4	0xbe8123f3	-0.2522274
5	0x3e51b326	0.20478496
6	0xbe919861	-0.28436568
7	0x3df9f22c	0.12204394
8	0x3e5e1be7	0.21690331
9	0xbe4bed20	-0.19914675
10	0x3e5599ff	0.20859526
11	0xbe783e39	-0.24242486
12	0x3e81017d	0.25196448
13	0x3d1a21c9	0.037629876
14	0x3d9652a4	0.07339981
15	0xbdb7d92e	-0.089769706
16	0xbc681829	-0.0141659165
17	0x3c4539b7	0.012037686
18	0x3e3bc56b	0.18337028
19	0xbe1fe295	-0.15613778
20	0x3e6765a9	0.22597374
21	0xbd012d71	-0.031537477
22	0xbcc5e49b	-0.02415686
23	0x3dec8a23	0.11549785
24	0xbe007915	-0.12546189
25	0xbe8c4c2a	-0.2740186
26	0xbe396889	-0.18106283
27	0x3d7f3e2d	0.062315155
28	0xbe771aaa	-0.24131265
29	0x3e263e56	0.16234717
30	0xbd8c3427	-0.06845885
31	0xbe1f060e	-0.15529653
32	0xbe128521	-0.14308597
33	0x3da5cd8a	0.08095844
34	0x3d92a6e8	0.07160741
35	0x3e11a7c5	0.14224155
36	0x3dbfcc39	0.09365124
37	0x3dceccc4	0.1009765
38	0x3d64566c	0.05574648
39	0x3e415f1e	0.1888394
40	0x3de21759	0.110396095
41	0x3e84d98b	0.25947222
42	0xbe163a2b	-0.14670627
43	0x3e11aa27	0.14225064
44	0xbe146c74	-0.14494497
45	0x3d557969	0.05211774
46	0xbd3ff907	-0.04686835
47	0xbe57cbe5	-0.21073873
48	0xbd888524	-0.066660196
49	0xbe047231	-0.12934186
50	0x3bbb27b3	0.0057115196
51	0x3e121b8d	0.14268322
52	0x3cceba83	0.02523542
53	0x3e0ebcd7	0.13939224
54	0x3e4993ce	0.1968529
55	0x3e7356fc	0.2376365
56	0xbe06c343	-0.13160424
57	0x3d4e029e	0.050295465
58	0xbd1f343c	-0.038868174
59	0xbe334757	-0.17507683
60	0xbe0118a9	-0.12607063
61	0xbd8411c3	-0.064487
62	0xbe69c595	-0.22829278
63	0xbdc04db7	-0.09389823

fc.weight f4 [1, 64]
0	0xbd5036ed	-0.05083363
1	0xbd649c84	-0.055813327
2	0xbd8ee662	-0.06977536
3	0xbca8a218	-0.020585105
4	0x3d1a65d4	0.037694767
5	0xbe2b63ab	-0.16737239
6	0xbda4080c	-0.08009347
7	0x3d820985	0.06349472
8	0xbd16b37b	-0.03679226
9	0x3de0cb0c	0.10976228
10	0xbd345fb8	-0.044036597
11	0x3ddefcc0	0.10888052
12	0xbd910846	-0.07081656
13	0xbd867f9e	-0.0656731
14	0xbd34364b	-0.04399709
15	0x3c1ea620	0.009683162
16	0x3d99c505	0.075082816
17	0x3a48a800	0.00076544285
18	0xbd10b84b	-0.035332005
19	0xbb21f4c9	-0.0024712554
20	0xbd100f23	-0.035170685
21	0x3e02f722	0.12789586
22	0x3e271108	0.1631509
23	0xbe2091b2	-0.15680578
24	0xbc969f38	-0.018386468
25	0xba963600	-0.0011460185
26	0xbd9e83b8	-0.07739967
27	0x3dd364c2	0.103219524
28	0x3e27dd98	0.16393125
29	0x3d886163	0.066592
30	0x3db85de8	0.09002286
31	0xbd9ab01a	-0.0755312
32	0x3d841dd8	0.06451005
33	0xbd3c5e7e	-0.045988552
34	0x3da81207	0.082065634
35	0x3dc991c0	0.09842253
36	0x3d56d89f	0.05245268
37	0xbd156609	-0.03647426
38	0xbdae1bdf	-0.0850141
39	0xbd375d03	-0.044766437
40	0x3d98cc7f	0.074608795
41	0xbca01d3a	-0.019545186
42	0xbdfdf884	-0.12400916
43	0x3d2447e8	0.040107638
44	0xbd3c8223	-0.046022546
45	0x3d4aec12	0.04954154
46	0xbd4aa610	-0.049474776
47	0x3de77adf	0.11302733
48	0x3de2da10	0.11076748
49	0xbde71226	-0.112827584
50	0x3d0a5ef0	0.033781946
51	0xbd99c0f5	-0.07507507
52	0x3c0d005b	0.008606042
53	0x3db7ea83	0.089802764
54	0xbcdbfe5e	-0.02685469
55	0xbdcdd72f	-0.10050809
56	0xbd98e4c6	-0.0746551
57	0x3bcf9a0f	0.006335504
58	0x3dade5c3	0.08491089
59	0x3d1f4268	0.03888169
60	0x3e28c0f9	0.16479863
61	0x3dc72cfd	0.09725378
62	0x3cd14048	0.025543347
63	0xbcfa0a66	-0.030522536
